…
elapsed":8,"user":{"displayName":"lokeshkumar kolluri","photoUrl":"https://lh3.googleusercontent.com/a-/AOh14GgoVq5K3CqDj4CUq-vmvQAmYVPY26bmQLvTQ3Ft=s64","userId":"01372685654433503723"}},"outputId":"8ca2d112-e956-4613-c8b8-e9cfd2e0f001"},"source":["model.summary()"],"execution_count":null,"outputs":[{"output_type":"stream","text":["Model: \"sequential\"\n","_________________________________________________________________\n","Layer (type)                 Output Shape              Param #   \n","=================================================================\n","conv2d (Conv2D)              (None, 62, 62, 32)        896       \n","_________________________________________________________________\n","max_pooling2d (MaxPooling2D) (None, 31, 31, 32)        0         \n","_________________________________________________________________\n","conv2d_1 (Conv2D)            (None, 29, 29, 64)        18496     \n","_________________________________________________________________\n","max_pooling2d_1 (MaxPooling2 (None, 14, 14, 64)        0         \n","_________________________________________________________________\n","dropout (Dropout)            (None, 14, 14, 64)        0         \n","_________________________________________________________________\n","flatten (Flatten)            (None, 12544)             0         \n","_________________________________________________________________\n","dense (Dense)                (None, 15000)             188175000 \n","_________________________________________________________________\n","dropout_1 (Dropout)          (None, 15000)             0         \n","_________________________________________________________________\n","dense_1 (Dense)              (None, 7000)              105007000 \n","_________________________________________________________________\n","dense_2 (Dense)              (None, 2000)              14002000  \n","_________________________________________________________________\n","dense_3 (Dense)              (None, 300)               600300    \n","_________________________________________________________________\n","dense_4 (Dense)              (None, 1)                 301       \n","=================================================================\n","Total params: 307,803,993\n","Trainable params: 307,803,993\n","Non-trainable params: 0\n","_________________________________________________________________\n"],"name":"stdout"}]},{"cell_type":"code","metadata":{"id":"lpsRdXAW0NMW"},"source":["model.save('Face_Mask_Prediction_1.h5')"],"execution_count":null,"outputs
…
